models/model.pt (torch, 378600 bytes, 8 tensors)

conv1.weight f4 [32, 1, 3, 3]
0	0xbe049348	-0.12946808
1	0x3ed90a09	0.4239047
2	0x3ee4ee55	0.44713083
3	0x3cfcdc42	0.030866746
4	0xbe53d859	-0.20687999
5	0xbe7642be	-0.24048898
6	0xbe084766	-0.13308486
7	0xbe0b6810	-0.13613915
8	0xbdc4d5af	-0.096110694
9	0x3df93803	0.121688865
10	0x3ec19f8f	0.37817046
11	0x3f07960c	0.5296333
12	0xbda2f48f	-0.07956802
13	0x3d1569f2	0.03647799
14	0x3ee17214	0.44032347
15	0x3ea38d37	0.31943676
16	0x3db576a2	0.08860518
17	0x3ea5ab2e	0.32357162
18	0x3e4c54a2	0.1995416
19	0x3da75ded	0.08172212
20	0x3eb07c59	0.3446987
21	0x3ecec11a	0.403817
22	0x3df101d2	0.11767925
23	0xbda9a053	-0.082825325
24	0xbdaaabf5	-0.083335795
25	0x3ee30aa8	0.44344068
26	0x3f196abf	0.59928507
27	0x3f16c027	0.5888695
28	0x3c841ee7	0.016128017
29	0x3e842ff5	0.25817838
30	0xbda15a85	-0.07878593
31	0xbd9c55bc	-0.0763354
32	0xbe574b12	-0.21024731
33	0xbd94025a	-0.07227011
34	0xbe932460	-0.2873869
35	0xbe97fcb3	-0.29684982
36	0x3dac6896	0.08418386
37	0x3ee09c5d	0.43869296
38	0x3ec34bc1	0.38143733
39	0xbe8caa1e	-0.2747354
40	0xbe42832d	-0.18995352
41	0xbdc70373	-0.09717455
42	0x3d5062ed	0.050875593
43	0x3ead6ecb	0.3387359
44	0x3ee55633	0.44792327
45	0x3eaa20dc	0.33228195
46	0x3e771e5c	0.24132675
47	0x3f05fd88	0.52339983
48	0x3de0e973	0.10982027
49	0x3d83926a	0.06424411
50	0x3ec16b2e	0.37777084
51	0xbe2a0468	-0.16603243
52	0x3eb6d9b7	0.35712978
53	0xbe14daa2	-0.14536527
54	0x3ed1c3ac	0.40969598
55	0xbe1858bd	-0.14877601
56	0x3c536e46	0.012904709
57	0x3ef259de	0.47334188
58	0xbe578f4f	-0.21050762
59	0x3e461c15	0.1934665
60	0x3da29fba	0.07940622
61	0xbe818fe6	-0.25305098
62	0x3e7ead6c	0.24870843
63	0x3eadc087	0.3393595
64	0xbe191956	-0.14951071
65	0xbea5de2b	-0.32396063
66	0x3f01d434	0.5071442
67	0x3ef6edcb	0.48228297
68	0xbdd1b2dc	-0.10239193
69	0x3e1e6108	0.15466702
70	0x3f09f727	0.5389275
71	0x3d894ff7	0.06704705
72	0x3ec8a646	0.39189357
73	0x3ef4e6e9	0.4783242
74	0x3f0519ba	0.5199238
75	0x3e8bdb60	0.27315807
76	0xbd933adb	-0.0718896
77	0xbdfc6b4a	-0.12325151
78	0x3d9fe3e0	0.078071356
79	0x3eafbe6d	0.3432497
80	0xbdbf4ae3	-0.093404554
81	0x3efa1781	0.48846057
82	0x3cd75163	0.026283925
83	0xbebf93df	-0.37417504
84	0x3ec22a05	0.37922683
85	0xbe882aa4	-0.26595032
86	0xbe923b3c	-0.28560817
87	0x3dfd6fb2	0.1237482
88	0x3a0d4a64	0.0005389808
89	0xbed5a758	-0.41729236
90	0xbe76f01a	-0.24115029
91	0xbea18df1	-0.31553605
92	0x3e8c4a0d	0.27400246
93	0xbe4101d1	-0.18848349
94	0xbe75c89a	-0.24002305
95	0xbea11fc1	-0.3146954
96	0x3e5d15f7	0.2159041
97	0xbe2fdc6f	-0.17173932
98	0xbea6380c	-0.32464635
99	0x3e14076d	0.14455958
100	0x3e29dacb	0.16587369
101	0x3eae790e	0.34076732
102	0x3d81add1	0.06331981
103	0x3ec76aca	0.3894866
104	0xbea25e57	-0.317126
105	0x3ee8879f	0.4541597
106	0xbd4fa48a	-0.050694026
107	0xbebd6f85	-0.36999145
108	0xbde0a1f4	-0.1096839
109	0x3ee7b0d9	0.45252112
110	0x3eecfe34	0.46287692
111	0x3eb9397b	0.36176667
112	0x3d9d0796	0.076674625
113	0x3e57aef5	0.21062835
114	0xbca28dab	-0.019842943
115	0x3eb878df	0.36029717
116	0x3eb0013f	0.3437595
117	0x3ecbf575	0.39835706
118	0x3ea2d6d3	0.31804523
119	0x3e5ef582	0.21773341
120	0x3ecb982e	0.3976454
121	0x3ef8f8dd	0.48627368
122	0x3f07aa11	0.52993876
123	0x3dad78c9	0.084703036
124	0x3e2aa77b	0.16665451
125	0x3ee2c84c	0.4429344
126	0xbe870d15	-0.26377168
127	0xbe926e2f	-0.28599688
128	0xbe8e9e58	-0.27855182
129	0x3eb74aeb	0.35799345
130	0xbe959482	-0.29214865
131	0xbed95a7d	-0.4245185
132	0x3e8081c3	0.25099
133	0xbe06f64b	-0.13179891
134	0xbecb9261	-0.39760116
135	0xbeab9d15	-0.33518282
136	0xbeb6ecd4	-0.3572756
137	0xbec74c9b	-0.38925633
138	0xbed3ecac	-0.41391504
139	0xbdeef3c9	-0.11667592
140	0xbd8b6f80	-0.06808376
141	0xbed19f55	-0.40941873
142	0x3e14da63	0.14536433
143	0x3ea0cf0d	0.31407967
144	0x3ec81eed	0.39086094
145	0xbe48981e	-0.19589278
146	0xbe1a3a22	-0.15061238
147	0x3eaae003	0.33374032
148	0xbe6c10bd	-0.2305326
149	0x3e17647a	0.14784423
150	0x3ece48bd	0.4028987
151	0xbe36fd6a	-0.17870107
152	0xbdfa8df8	-0.1223411
153	0x3eea12b9	0.4571741
154	0xbcfbce41	-0.030737998
155	0xbd922e52	-0.07137741
156	0xbe0cc81e	-0.13748214
157	0x3e717dcf	0.23583148
158	0xbef441a2	-0.47706324
159	0x3d726b6b	0.059184473
160	0x3c0a3e18	0.008437656
161	0xbd4794c2	-0.04872585
162	0xbe592463	-0.21205287
163	0xbc2c6d56	-0.010524115
164	0xbe555c48	-0.20835984
165	0xbe92900b	-0.2862552
166	0xbe96efc7	-0.2947981
167	0x3cc4dcc0	0.024031043
168	0xbe56e3e3	-0.2098537
169	0xbc7bc1ab	-0.015365998
170	0xbe2386ab	-0.1596934
171	0xbc1e9ea3	-0.009681377
172	0x3dd733a0	0.105078936
173	0xbedd1954	-0.43183386
174	0xbdca0a38	-0.0986523
175	0xbec41be0	-0.38302517
176	0xbebb95c0	-0.36637688
177	0xbeb92d8c	-0.36167562
178	0xbe3e458f	-0.18581222
179	0x3e77d6c9	0.24203028
180	0x3e71b813	0.23605375
181	0x3ea4a126	0.32154197
182	0xbe009fee	-0.12561008
183	0xbcc80afe	-0.024419304
184	0x3d96fdd3	0.07372632
185	0x3ef091a6	0.4698612
186	0x3e6ce111	0.23132731
187	0x3ebd459a	0.36967164
188	0x3f161032	0.5861846
189	0xbb02b377	-0.0019943395
190	0x3cc2dd3a	0.02378713
191	0xbd9cc4b9	-0.07654709
192	0x3e9d3b7f	0.30709454
193	0xbe20c83d	-0.15701385
194	0xbdcdbd08	-0.100458205
195	0x3ec0fc0a	0.3769229
196	0xbde96fbd	-0.113982655
197	0xbe92c12d	-0.28663006
198	0xbe4d443b	-0.20045559
199	0xbe0d7d0e	-0.13817236
200	0xbe80640f	-0.2507634
201	0xbe769ce5	-0.24083288
202	0xbe8896eb	-0.2667764
203	0x3ecbdd15	0.3981711
204	0xbe0e999e	-0.13925788
205	0x3e0fd392	0.14045551
206	0xbdd1c61e	-0.10242866
207	0xbe87b5d0	-0.265059
208	0xbddc8cef	-0.107690684
209	0x3e1472bf	0.14496897
210	0xbd39dccb	-0.04537658
211	0xbe28812a	-0.16455522
212	0x3eed00e2	0.46289736
213	0x3ea2c453	0.31790408
214	0x3f013264	0.50467515
215	0x3d9447ad	0.072402336
216	0x3ec91340	0.392725
217	0x3ef731db	0.48280224
218	0x3da6d4f7	0.081460886
219	0x3f0318c4	0.51209664
220	0x3d364677	0.044500794
221	0x3e95a6ea	0.29228908
222	0xbcdc3ade	-0.026883539
223	0x3ebdecd6	0.37094754
224	0x3ea130eb	0.31482634
225	0x3eee70b2	0.46570355
226	0xbb92d10e	-0.0044804877
227	0x3e4d52f0	0.2005117
228	0xbd13df2b	-0.0361015
229	0x3e47cf54	0.19512683
230	0xbe5a11f6	-0.21295914
231	0xbd2f3b55	-0.042781193
232	0x3e23f9e0	0.16013288
233	0x3ec9412b	0.39307532
234	0x3df213d2	0.11820187
235	0x3e925bf5	0.28585783
236	0x3d2db8f6	0.04241272
237	0x3ba510fb	0.0050374246
238	0x3e30f7ba	0.17282
239	0x3d67f289	0.056627784
240	0xbe876c9c	-0.2645005
241	0xbef55c6b	-0.47922072
242	0xbe129258	-0.14313638
243	0x3ee7cd92	0.45274025
244	0x3d8a0b91	0.06740487
245	0xbe11c811	-0.14236476
246	0x3abaeb10	0.0014260728
247	0x3eea2c4d	0.45736924
248	0x3e8f541c	0.27993858
249	0xbdd36356	-0.10321681
250	0x3ef0f21b	0.47059712
251	0x3ea7b725	0.32756916
252	0x3e37a7b3	0.17935066
253	0xbcb09117	-0.02155356
254	0xbdca8665	-0.09888915
255	0x3e5d8d65	0.21635969

conv1.bias f4 [32]
0	0x3cb339da	0.021878172
1	0x3d9d07ab	0.07667478
2	0x3e8e85c4	0.2783643
3	0x3e1a2484	0.15052992
4	0x3a822154	0.0009928145
5	0x3e9645b8	0.29350066
6	0xb8a8da26	-8.0514976e-05
7	0xbdd4eb03	-0.103963874
8	0x3e2e97f2	0.1705015
9	0x3e632ca6	0.22185001
10	0x3e8c3af8	0.2738874
11	0xba862a96	-0.001023608
12	0x3e8b2584	0.2717706
13	0x3da75069	0.08169634
14	0x3ed80d64	0.42197716
15	0x3e9b0fc9	0.3028548
16	0x3a4aff08	0.0007743691
17	0x3e4b04bf	0.19826029
18	0xbe2e177b	-0.17001145
19	0x3eb4b6ff	0.35295865
20	0xb889da2a	-6.573305e-05
21	0x3cdce5b4	0.026965
22	0xbd5eab3d	-0.054362524
23	0x39b86cc0	0.0003517624
24	0xbdaeb7dc	-0.08531162
25	0xbdaeaa09	-0.085285254
26	0x3e61f7cd	0.22067185
27	0x3984d349	0.00025334422
28	0xbc55b2c5	-0.01304311
29	0x392e09af	0.0001659754
30	0x3eaf0dfd	0.3419036
31	0x3d3722a3	0.044710767

conv2.weight f4 [64, 32, 3, 3]
0	0xbd4c96b1	-0.049948398
1	0xbde0fef5	-0.10986129
2	0xbe15c2ce	-0.14625093
3	0xbde7fa43	-0.113270305
4	0xbe1e57f8	-0.15463245
5	0xbe569e7a	-0.20958892
6	0xbdf64f88	-0.12026888
7	0xbe284842	-0.16433814
8	0xbe33d76f	-0.1756265
9	0x3c876e7f	0.01653218
10	0xbe005a03	-0.12534337
11	0xbd3751d6	-0.04475578
12	0xbd9e5538	-0.07731098
13	0xbbc32634	-0.005955482
14	0x3c2a7f2d	0.010406298
15	0x3d384ebc	0.044996962
16	0x3dc26e0c	0.09493646
17	0x3dcec24f	0.10095655
18	0xbd1596ae	-0.036520652
19	0xbd2dedfb	-0.042463284
20	0xbd05aade	-0.032633655
21	0xbd7cadfc	-0.061689362
22	0x3cedbc37	0.029020412
23	0x3d588c52	0.052868195
24	0xbd341536	-0.04396554
25	0x3d5542dc	0.052065715
26	0x3ddb5ecf	0.10711443
27	0x3cbb43ad	0.022859419
28	0x3d808ea1	0.06277204
29	0xbd8b180a	-0.067916945
30	0xbb7b2dc6	-0.0038326844
31	0xbc924082	-0.017853025
32	0xbe164518	-0.14674795
33	0xbd7b8395	-0.061404783
34	0xbe1a2c2f	-0.15055917
35	0xbdab60db	-0.08368083
36	0xbdcae55c	-0.09907028
37	0xbe0044d5	-0.12526257
38	0xbdb23a78	-0.08702558
39	0xbdd017bd	-0.10160778
40	0x3d6432ba	0.05571244
41	0x3db4adcf	0.08822214
42	0x3c2d07da	0.010560954
43	0x3d9f6663	0.077832006
44	0x3d4d954f	0.05019122
45	0x3d53f88f	0.051750716
46	0xbd7fd3b8	-0.06245777
47	0xbdbc0db8	-0.09182304
48	0x3d207117	0.03917035
49	0xbcc5be92	-0.024138723
50	0xbcabf123	-0.020989006
51	0xbd55210f	-0.05203348
52	0x3db4616b	0.088076435
53	0x3d76d619	0.060262773
54	0xbd2aeaaf	-0.041727718
55	0xbdcddb36	-0.10051577
56	0xbd320e1a	-0.04347048
57	0xbd91c04e	-0.07116757
58	0x3cb7dbbf	0.02244365
59	0xbda00828	-0.07814056
60	0xba0edf27	-0.00054501224
61	0x3da6a925	0.081377305
62	0x3c39cc37	0.0113401925
63	0x3c9dbb80	0.019254446
64	0xbd413243	-0.047167074
65	0xbdf7ee60	-0.12106013
66	0xbdfd4ac2	-0.123677745
67	0xbc19136b	-0.0093430085
68	0x3d4dc3b4	0.050235465
69	0xbd4e4fcc	-0.05036907
70	0x3cc3ecdc	0.023916654
71	0x3dbb40cb	0.09143218
72	0xbcaf6508	-0.02141048
73	0xbc80981a	-0.015697528
74	0xbdac306f	-0.084076755
75	0xbcdabebb	-0.026702275
76	0xbd931014	-0.07180801
77	0x3d3454a4	0.044026032
78	0xbda8e8ac	-0.08247504
79	0xbcaf471d	-0.021396214
80	0x3d91b166	0.07113914
81	0x3d75c0bf	0.05999827
82	0x3cd36b06	0.025807869
83	0xbd450004	-0.048095718
84	0x3cd64fce	0.0261611
85	0xbba07cfa	-0.004897711
86	0xbdc6318e	-0.096774206
87	0xbc69c4b6	-0.014268091
88	0xbdb130c0	-0.086518764
89	0xbc0610fe	-0.008182762
90	0x3d366088	0.044525653
91	0x3dded11f	0.108797304
92	0x3da24f4b	0.0792528
93	0x3dcc983a	0.099899724
94	0x3dc63684	0.09678367
95	0x3c20ac65	0.009806727
96	0x3d7f3fb7	0.062316623
97	0xbdaf8991	-0.085711606
98	0xbe0328ae	-0.12808487
99	0x3ce81028	0.028328016
100	0xbdb7329f	-0.08945202
101	0xbe1ebe1b	-0.15502207
102	0xbdfdf235	-0.12399713
103	0xbdbdb2ae	-0.09262596
104	0xbd880f31	-0.066435225
105	0xbdad651a	-0.08466549
106	0x3b30fcfe	0.0027006264
107	0x3e1fd6ad	0.15609236
108	0x3bf85d92	0.007579514
109	0xbd83cec6	-0.06435923
110	0xbd6d5638	-0.057943553
111	0x3c44dc5e	0.01201543
112	0x3d0890d3	0.03334124
113	0x3dd135ae	0.10215317
114	0x3a7a4260	0.0009546634
115	0x3dbd8a27	0.09254866
116	0x3d8ae78d	0.06782446
117	0x3c608b4d	0.013705087
118	0xbd779a9a	-0.060450174
119	0xbde5daab	-0.11223348
120	0xbd6a7f7e	-0.057250492
121	0x3c4a99a5	0.012365733
122	0x3d011e45	0.031523008
123	0xbcb3646a	-0.021898467
124	0x3d113c85	0.035458107
125	0x3dbd23af	0.09235322
126	0x3dc44c7c	0.09584901
127	0x3da6b494	0.08139911
128	0x3d396f87	0.045272376
129	0x3a0b5a48	0.0005315882
130	0x3d93b8ae	0.07212959
131	0xbd169eb8	-0.03677246
132	0x3c59f003	0.013301852
133	0xbd0b1b3d	-0.033961523
134	0xbd222c53	-0.039593052
135	0x3dde681a	0.108596995
136	0x3d084265	0.033266444
137	0x3d8d5c51	0.069023736
138	0x3d09bd70	0.033627927
139	0x3de2af45	0.11068586
140	0x3e3cdcf7	0.18443666
141	0x3e1f64b1	0.15565754
142	0x3de24a83	0.11049368
143	0x3d6ecb90	0.0582996
144	0xbdbaa996	-0.09114377
145	0xbd58377a	-0.05278728
146	0xbe2b9bf1	-0.16758706
147	0xbd85c2a0	-0.065312624
148	0xbdbc5c13	-0.09197249
149	0xbde5631a	-0.11200543
150	0xbdcc3431	-0.09970892
151	0xbd45e07a	-0.04830978
152	0x3cc75372	0.024331782
153	0x3cf43d47	0.029814376
154	0xbca136b0	-0.019679397
155	0xbc2bfc45	-0.010497157
156	0x3d7a9a50	0.06118232
157	0xbd50e556	-0.05099996
158	0xbceee07c	-0.029159777
159	0xbcaa13a0	-0.020761311
160	0xbd117b0b	-0.035517734
161	0xbcecc4dc	-0.028902464
162	0x3bbc63ce	0.0057492023
163	0xbd346d21	-0.044049386
164	0xbcfa03e0	-0.030519426
165	0x3c3f0bed	0.011660558
166	0x3d014a23	0.031564843
167	0xbd3855a2	-0.04500354
168	0xbce4639c	-0.027879529
169	0x3c1120b0	0.008857891
170	0x3d5750f6	0.052567445
171	0x3e00ac74	0.12565786
172	0x3d938e7a	0.072049096
173	0x3df012d9	0.11722345
174	0x3de9f4d4	0.114236504
175	0x3e2a9a6d	0.16660471
176	0x3e062267	0.13099061
177	0x3df87014	0.12130752
178	0x3e285a53	0.16440706
179	0x3c089f78	0.008338802
180	0xbd7dc4a1	-0.061955098
181	0xbe0747b4	-0.13210946
182	0xbd3daed6	-0.046309315
183	0xbddf82d3	-0.109136246
184	0x3d4b49ce	0.049630933
185	0x3d1cf28a	0.03831724
186	0xbd1dce47	-0.0385268
187	0x3de6b2c4	0.112645656
188	0x3d8522a8	0.06500751
189	0xbc9173c4	-0.017755397
190	0xbc5c7d1c	-0.013457563
191	0xbe501f59	-0.20324458
192	0xbdc8f16f	-0.09811675
193	0xbe368456	-0.1782392
194	0xbe40e096	-0.18835673
195	0xbd0123df	-0.03152835
196	0xbde6a0a4	-0.112611085
197	0x3d77a9d0	0.06046468
198	0x3c47f61b	0.012204672
199	0xbd396f88	-0.04527238
200	0x3d3371a5	0.04380955
201	0x3c4cc2a2	0.012497576
202	0x3d83a731	0.064283736
203	0x3b7d78c2	0.0038676714
204	0x3d73379a	0.059379198
205	0x3db6023f	0.08887147
206	0x3d5be58e	0.053685717
207	0xbdc690ac	-0.09695563
208	0xbe0a51f5	-0.13507827
209	0xbcf9dd55	-0.030501047
210	0xbe1057a9	-0.1409594
211	0x3d2f494e	0.04279452
212	0x3de74c8b	0.11293896
213	0x3cceadd5	0.025229374
214	0x3e0195bd	0.12654777
215	0x3e1e4fed	0.15460177
216	0xbb8040c7	-0.003913972
217	0xbdc8e2da	-0.098088935
218	0xbdb2471c	-0.08704969
219	0xbd8a8221	-0.06763101
220	0x3c9f95ae	0.019480553
221	0x3b414461	0.002949022
222	0xbdd0341c	-0.10166189
223	0x3d1db02e	0.038498096
224	0x3e175de0	0.14781904
225	0xbd9ae8d7	-0.07563942
226	0xbde9333e	-0.11386727
227	0xbdf8c961	-0.12147785
228	0xbe0952f9	-0.13410558
229	0xbd76b1c7	-0.060228135
230	0x3cdea5f5	0.027178744
231	0xbd42a061	-0.04751623
232	0x3daf3602	0.08555223
233	0x3b0977eb	0.0020976018
234	0x3cb4e0c7	0.022079838
235	0x3ccf2016	0.025283854
236	0x3a3fc854	0.0007315923
237	0xbc5683bb	-0.01309293
238	0x3d40817e	0.046998493
239	0xbda8a5f8	-0.08234781
240	0xbb58003a	-0.003295912
241	0xbd83924d	-0.06424389
242	0xbe597723	-0.21236853
243	0x3c9af6c4	0.018916495
244	0xbe060822	-0.1308904
245	0xbc40e478	-0.011773221
246	0xbe01a51e	-0.12660643
247	0xbd25c951	-0.040475193
248	0x3c8e7f8c	0.017394803
249	0xbd3ff437	-0.04686376
250	0x3dc11502	0.09427835
251	0x3df590bf	0.11990499
252	0xbd974fc9	-0.07388265
253	0xbdb63dce	-0.08898507
254	0xbd94b20a	-0.07260521
255	0xbdedd651	-0.11613143

conv2.bias f4 [64]
0	0x3dc43236	0.095798895
1	0x3cdb5acf	0.0267767
2	0x3cf76194	0.030197896
3	0x3cd4d9b1	0.02598271
4	0x3d553753	0.052054714
5	0xbd20c3be	-0.039249174
6	0x3c81dca4	0.01585228
7	0xbd93e21b	-0.072208606
8	0x3c6ab955	0.014326413
9	0xbd4d8abb	-0.05018113
10	0x3c40f325	0.01177672
11	0x3dbd1e47	0.092342906
12	0x3de23608	0.11045462
13	0xbaf1d7f8	-0.0018451205
14	0x3d115185	0.035478134
15	0x3c26a648	0.0101714805
16	0x3cb22bee	0.021749463
17	0xbc4e7caa	-0.012602964
18	0xbca16f60	-0.019706428
19	0x3cea4e98	0.02860193
20	0x3c78a645	0.0151763605
21	0x3d3dcc67	0.04633751
22	0xbd024177	-0.031800713
23	0x3d505c2b	0.05086915
24	0xbc86c951	-0.016453417
25	0xbac2443c	-0.0014821361
26	0xbc5e6395	-0.013573547
27	0x3d4c6666	0.049902342
28	0xbcf870d7	-0.030327244
29	0xbc0c2afd	-0.008555171
30	0x3d30be3c	0.04315017
31	0x3be98dac	0.0071274843
32	0xbc6784e0	-0.014130801
33	0x3dc3d8ab	0.095628105
34	0xbd28f93f	-0.041253325
35	0xbca1903d	-0.019722098
36	0xbb216dc8	-0.0024632085
37	0x3d7df27e	0.061998837
38	0xbbf02192	-0.0073282206
39	0xbd298750	-0.04138881
40	0x3cc86644	0.024462827
41	0xbd2bbaf0	-0.041926324
42	0xbd816feb	-0.06320175
43	0x3d3a8ed3	0.045546364
44	0x3d1488e0	0.036263347
45	0x3cb43677	0.021998627
46	0xbd26407b	-0.040588837
47	0xbd3d928a	-0.04628233
48	0x3d30f023	0.043197762
49	0xbab164fe	-0.0013534126
50	0xbd5fa17a	-0.054597355
51	0xbd62b6fb	-0.055350285
52	0xbc16a4cc	-0.009194564
53	0xbd7bce4f	-0.061476048
54	0xbd95dbde	-0.07317327
55	0xbc1f6c72	-0.009730445
56	0x3ddcf365	0.10788611
57	0x3d55e280	0.05221796
58	0xbd0c2511	-0.034215037
59	0xbd8ccdd5	-0.06875197
60	0xbb591730	-0.0033125393
61	0x3bf70800	0.0075387955
62	0xbd72c810	-0.059272826
63	0xbdcbea34	-0.0995678

conv3.weight f4 [128, 64, 3, 3]
0	0x3d12609f	0.035736676
1	0xbca34bbd	-0.019933576
2	0x3ce2544c	0.027628087
3	0x3c377bc0	0.011198938
4	0x3cfb51ee	0.030678716
5	0x3c9b847e	0.018984076
6	0x3c00be7e	0.007857917
7	0x3cbc9a78	0.023022875
8	0x3d18c1cf	0.037294205
9	0x3cb90a8a	0.022588033
10	0xbd03cd36	-0.032178126
11	0x3d18c8d0	0.037300885
12	0x3d0380f3	0.032105397
13	0x3c6dd5b9	0.0145162875
14	0xbd2f9f55	-0.04287656
15	0xbc400c04	-0.011721615
16	0xbd2a2789	-0.04154161
17	0x3c115a1d	0.008871582
18	0x3b9c25ba	0.0047652395
19	0x3cebb013	0.028770482
20	0x3b63bf11	0.0034751336
21	0x3c83d770	0.01609394
22	0x3b77c252	0.0037805033
23	0xbbb3308d	-0.005468434
24	0x3d0fea7d	0.035135735
25	0x3ce02cb2	0.027365062
26	0x3d00155e	0.031270377
27	0xbcd8369b	-0.026393225
28	0x3b8ee8d0	0.0043612495
29	0xbd01a62e	-0.031652622
30	0xbcb9202a	-0.022598345
31	0xbc1695ac	-0.009190958
32	0x3cc74020	0.02432257
33	0x3bbbf9b2	0.005736553
34	0xbced3315	-0.028955022
35	0xbc26f18d	-0.010189426
36	0xbd153570	-0.036427915
37	0x3ce82af5	0.028340796
38	0xbcc0f2fa	-0.02355336
39	0x3c1275da	0.008939231
40	0x3c914415	0.01773266
41	0xbd1cc1b5	-0.03827067
42	0x3ce971cf	0.028496651
43	0x3cf1d7ed	0.029521907
44	0x3d0415f3	0.032247495
45	0xbba1c5eb	-0.0049369237
46	0xbce5dcc1	-0.028059365
47	0xbd0adc0a	-0.03390125
48	0xbcef9413	-0.029245412
49	0xbce53409	-0.027978914
50	0xbc617fb1	-0.013763354
51	0xbd3a6d07	-0.045514133
52	0xbcf4c81d	-0.029880578
53	0xbcba877c	-0.022769682
54	0x3c8f2e68	0.017478183
55	0xbac918c2	-0.0015342461
56	0xbd206b4d	-0.03916483
57	0x3ca9bff5	0.020721415
58	0x3ad74710	0.0016424377
59	0x3c7ef4b3	0.0155612705
60	0xbba74f35	-0.0051058778
61	0x3d18cecb	0.03730659
62	0x3cad35b5	0.021143774
63	0x3c2187e9	0.009859064
64	0x3d1ed050	0.03877288
65	0x3ce321a4	0.027726002
66	0xbd36c030	-0.044616878
67	0xbcf4025d	-0.029786283
68	0xbd2afbb6	-0.041743957
69	0xbd27900d	-0.040908862
70	0x3cb7ac38	0.022420987
71	0xbcfbed54	-0.030752815
72	0x3ceb8938	0.028751954
73	0x3c27de45	0.010245864
74	0x3c5c1d6e	0.013434751
75	0x3b20437e	0.002445429
76	0x3cf2ab40	0.029622674
77	0x3c88050f	0.016603975
78	0xbd01c8fd	-0.031685818
79	0x3c4ccd45	0.012500112
80	0xbc2152ef	-0.009846433
81	0xbcf26897	-0.029590888
82	0x3d14d76c	0.036338255
83	0x3c6b26aa	0.01435248
84	0xbcb8e8ab	-0.022571882
85	0x3cd31178	0.025765166
86	0x3c976593	0.018481052
87	0xbc776427	-0.015099562
88	0x3c4b2e7b	0.0124012185
89	0xbd1bd109	-0.03804115
90	0x3ca63fc0	0.02029407
91	0xbc9543b0	-0.018220752
92	0xbd20aa20	-0.039224744
93	0x3ac816d6	0.0015265595
94	0x3c4c4e46	0.012469834
95	0xbd0f6977	-0.03501269
96	0x3cb2ccce	0.021826174
97	0xbcca5456	-0.024698418
98	0xbd07df0b	-0.033171695
99	0x3d18b0ad	0.037277866
100	0xbbaa9463	-0.0052056774
101	0x3ccbc443	0.024873858
102	0xbcdbc503	-0.026827341
103	0xbd2f65a7	-0.042821553
104	0xbd07d157	-0.033158626
105	0x3d14f760	0.036368728
106	0xbd17a48b	-0.037022155
107	0x3c9d864c	0.019229077
108	0xbd2d0a0d	-0.042245913
109	0xbd24b8a5	-0.040215153
110	0xbd223794	-0.039603785
111	0x3b0a6379	0.002111642
112	0xbd0a5e39	-0.033781264
113	0xbd239427	-0.03993621
114	0x3ce16f59	0.027518915
115	0x3b844e15	0.0040376284
116	0xbc9869b5	-0.018605093
117	0xbd196f22	-0.0374595
118	0xbcb404b4	-0.021974899
119	0xbd157b7d	-0.03649472
120	0xbd13c18d	-0.036073256
121	0xbcda11e0	-0.026619852
122	0x3a08f7cb	0.00052249123
123	0x3c30b4f4	0.01078533
124	0xbd27d4ca	-0.040974416
125	0x3b1d1b86	0.0023972704
126	0xbd24d099	-0.040237997
127	0xbd03f863	-0.032219302
128	0xbd2d22b7	-0.042269435
129	0xbd2cfeea	-0.042235292
130	0xbcd99a9e	-0.026562985
131	0x3c02cc29	0.007983246
132	0x3bd18cdd	0.006394966
133	0x3d032db3	0.032026004
134	0xbd327c60	-0.043575644
135	0xbd044403	-0.032291424
136	0xbba1a0ed	-0.004932514
137	0xbc815ca5	-0.015791247
138	0x3c9f92cc	0.019479178
139	0x3ca572ec	0.0201964
140	0x3cd2b495	0.025720874
141	0xbc80bc37	-0.015714748
142	0x3d131958	0.03591284
143	0xbc9e4251	-0.019318732
144	0xbb69c90c	-0.0035672812
145	0xbd17ccc9	-0.037060533
146	0x3bd43f16	0.006477247
147	0x3b61e826	0.0034470647
148	0x3bc08a47	0.005875859
149	0x3cb2f35d	0.02184456
150	0xbc3d8efa	-0.011569733
151	0x3c128d9b	0.008944894
152	0xbb0ed86e	-0.0021796483
153	0x3cce05d1	0.025149258
154	0x3c38e90a	0.01128603
155	0xbc962c57	-0.01833169
156	0xbcf9dcfe	-0.030500885
157	0xbc844397	-0.01614551
158	0x3cd2d3b1	0.025735708
159	0xbc8880e5	-0.016663024
160	0xbbb31f4b	-0.005466377
161	0xbcedba14	-0.029019393
162	0x3c937159	0.017998384
163	0xbbb64822	-0.005562798
164	0x3bd94242	0.006630213
165	0xbd069961	-0.032861117
166	0xbcd61d63	-0.02613706
167	0x3cbf39e8	0.023343042
168	0xbcbad10e	-0.022804763
169	0x3ce2012b	0.027588448
170	0xbbf65105	-0.0075169825
171	0xbd2c8c5b	-0.04212604
172	0x3b1c6365	0.0023862955
173	0x3a39c72d	0.00070868694
174	0x3c929930	0.017895311
175	0xbd0aeccc	-0.033917233
176	0xbd1d6d6b	-0.038434427
177	0xbc8b4a4f	-0.017003207
178	0x3cb0c5d0	0.0215787
179	0xbcaf8a8b	-0.021428367
180	0x3d11f198	0.035630792
181	0x3ccbc83e	0.024875756
182	0x3c9b9e50	0.018996388
183	0x3bfd086b	0.0077219508
184	0xbd09e477	-0.033665147
185	0x3ca22224	0.01979167
186	0x3cfedc7e	0.031110998
187	0xbae6c573	-0.0017606452
188	0x3c762a74	0.01502477
189	0x3ccbd0cc	0.024879836
190	0xbcd67f0f	-0.026183633
191	0x3c4c61cf	0.012474491
192	0xbd09c5f4	-0.03363605
193	0xbd364e4e	-0.04450827
194	0x3d157819	0.036491487
195	0x3cb093b2	0.021554802
196	0xbafee84d	-0.0019447893
197	0xbd20d4eb	-0.039265554
198	0xbd02e221	-0.031953935
199	0xbce87f30	-0.02838096
200	0xbd31ffae	-0.043456726
201	0xbcd79e5f	-0.026320634
202	0x3d0f5f2d	0.035002876
203	0x3ca165a4	0.019701786
204	0x3d1e41aa	0.03863684
205	0xbc4bd5a1	-0.01244107
206	0xba5f4b15	-0.0008517963
207	0x3b6f1892	0.003648315
208	0xbc7e2a32	-0.01551299
209	0xbcd3a64f	-0.025836138
210	0xbc5dee19	-0.013545536
211	0x3c4c8478	0.012482755
212	0xbcb7a987	-0.022419704
213	0x3c0f7c8b	0.008757721
214	0x3cde4cde	0.027136263
215	0xbc9e7b1e	-0.019345816
216	0x3cbd94e2	0.023142282
217	0x3d09b324	0.033618107
218	0x3af1afe8	0.0018439265
219	0xbcb9f812	-0.022701297
220	0x3c75127e	0.014958022
221	0xbd088bb3	-0.033336353
222	0xbc7b643e	-0.015343724
223	0x3cf266fd	0.029590124
224	0xbcc2e58d	-0.023791099
225	0xbd11abc4	-0.0355642
226	0xba172286	-0.0005765337
227	0x3c2fd00d	0.0107307555
228	0x3c7756a9	0.015096345
229	0xbc738a55	-0.014864524
230	0xb9fab568	-0.00047818874
231	0xbc2cd16a	-0.010547975
232	0xbd048828	-0.03235641
233	0x3c3eea3f	0.011652528
234	0x3c7e1594	0.015508074
235	0xbcffe99d	-0.031239325
236	0x3acb818d	0.001552628
237	0x3cd91f4e	0.026504185
238	0xbc0f78af	-0.008756801
239	0x3bd476c6	0.0064838855
240	0x3cd9e1d4	0.026596941
241	0x3c01516e	0.0078929495
242	0xbc6ee353	-0.0145805655
243	0xbd0973da	-0.03355775
244	0x3d17bcee	0.03704541
245	0xbbeb8b5a	-0.007188243
246	0xbacbf7fd	-0.0015561577
247	0xbbc379ce	-0.005965448
248	0xbc938633	-0.018008327
249	0x3c99c79d	0.01877194
250	0xbd074919	-0.033028696
251	0xbd1e476f	-0.038642343
252	0x3bf1a276	0.007374103
253	0x3c87057b	0.016482105
254	0x3cb5d44e	0.022195961
255	0xbbe958ba	-0.0071211727

conv3.bias f4 [128]
0	0xbc40690b	-0.011743794
1	0xbcd69651	-0.026194723
2	0x3b6ebc40	0.0036428124
3	0xbd17b23c	-0.037035212
4	0xbc3ca925	-0.011514937
5	0xbd4e5860	-0.05037725
6	0xbbd9a9f5	-0.006642575
7	0x3c29b0df	0.010357111
8	0x3a7d536a	0.0009663614
9	0xbcf20e7a	-0.029547919
10	0xbd08c153	-0.033387493
11	0xbc973157	-0.018456144
12	0x3c9f0473	0.019411301
13	0x3c92fccd	0.01794281
14	0xbd199803	-0.037498485
15	0x383cb782	4.4993598e-05
16	0xbca967a8	-0.02067931
17	0x3c241a34	0.010016013
18	0x3c133996	0.0089858975
19	0x3cefa25f	0.02925223
20	0x3ccf6f03	0.02532149
21	0x3c441738	0.011968426
22	0x3d208b8e	0.03919559
23	0xbd1677f0	-0.036735475
24	0xbbc814b8	-0.0061059855
25	0xbd27c1c6	-0.04095628
26	0x3cb0d686	0.021586668
27	0xbc82e1d7	-0.01597683
28	0x3d04b7f0	0.03240198
29	0xbd0d1e8b	-0.034452956
30	0xbd0c136e	-0.034198217
31	0xbd23631b	-0.039889436
32	0x3cee7813	0.02910999
33	0xbc89926e	-0.016793456
34	0xbb2b91f0	-0.0026179515
35	0x3c9cbf95	0.019134322
36	0xbd03a87e	-0.03214311
37	0xbcd6653c	-0.02617132
38	0xbcf778cd	-0.03020897
39	0xba4f29a7	-0.000790263
40	0x3d01d8a7	0.031700756
41	0xbc6a555e	-0.01430258
42	0x3ce86270	0.028367251
43	0x3c274013	0.010208148
44	0xbd18109e	-0.037125222
45	0xbd28fa1d	-0.04125415
46	0x3cd8418e	0.026398446
47	0x3d576bdb	0.052593093
48	0xbcd406cd	-0.02588215
49	0xbad9559b	-0.0016581299
50	0x3d17abb7	0.037028994
51	0x3c0507f9	0.008119577
52	0xbce1f26a	-0.027581412
53	0x3babbdb3	0.00524112
54	0x3bd7deec	0.0065878537
55	0xbd1fe687	-0.039038207
56	0xbd295ae5	-0.04134645
57	0xbd20a0b3	-0.039215755
58	0xbc08dad9	-0.008352959
59	0x3c5f5317	0.01363065
60	0xbcd40cde	-0.025885042
61	0x3a9155c4	0.0011088182
62	0xbc4f9f08	-0.012672193
63	0xbca48282	-0.020081762
64	0x3d1cc2b3	0.038271617
65	0x3ccabf54	0.024749435
66	0x3c3dc2a4	0.0115820505
67	0xbbe4764a	-0.006972109
68	0xbc1cf8bb	-0.009580786
69	0xbd2fa18d	-0.042878676
70	0x3b4823c2	0.0030538891
71	0xbcd06ccd	-0.025442505
72	0x3c40f430	0.011776969
73	0xbd17cb41	-0.037059072
74	0xbc947abc	-0.01812493
75	0xbb421a56	-0.0029617748
76	0xbd78ba30	-0.060724437
77	0x3ad12bf3	0.0015958532
78	0x3d30487a	0.04303787
79	0xbcdc1e25	-0.026869843
80	0xbc55d5fc	-0.013051506
81	0x3b62aef4	0.0034589143
82	0xbbbca905	-0.0057574534
83	0xbd199cf8	-0.037503213
84	0x3cefec2c	0.02928742
85	0x3cab90e0	0.020943105
86	0xbacd5329	-0.0015665042
87	0xbcad159e	-0.021128472
88	0xbd03ea66	-0.03220596
89	0x3c831ff6	0.016006451
90	0x3c59ea5d	0.0133005055
91	0xbc0fb2fc	-0.008770701
92	0x3c4f247b	0.012642975
93	0x3b2d8838	0.0026478898
94	0xbb382931	-0.0028100724
95	0xbd204690	-0.039129794
96	0x3bbdafa6	0.005788761
97	0x3d1089fe	0.03528785
98	0x3c78e7d2	0.015191989
99	0x3c0f8a34	0.008760978
100	0x3c94edf3	0.01817987
101	0xbd0f03d2	-0.034915753
102	0xbc875a9e	-0.016522702
103	0xbc8f23ac	-0.017473064
104	0x3d1353c5	0.03596856
105	0xbbc12709	-0.005894546
106	0xbc89e27f	-0.016831635
107	0xbd0a100b	-0.033706706
108	0xbcea9858	-0.028637096
109	0x3cc7f74c	0.024409913
110	0xbcff0269	-0.031129079
111	0xbd12c864	-0.03583564
112	0xbca456e3	-0.020060962
113	0xba94b6ce	-0.0011345984
114	0x3cd11b0f	0.025525598
115	0xbd0cc77d	-0.034369934
116	0xbd442e26	-0.047895573
117	0xbd58e81e	-0.05295574
118	0xbca160ef	-0.019699542
119	0x3d0269ad	0.03183906
120	0x3ca1cc17	0.019750638
121	0xbce2b38d	-0.027673507
122	0x3c97d67a	0.018534888
123	0xbc86625c	-0.016404323
124	0xbc9f9e81	-0.01948476
125	0xbcdf8d09	-0.02728893
126	0xbb76bf73	-0.0037650734
127	0xbc54bced	-0.012984497

fc1.weight f4 [10, 128]
0	0x3cc581cd	0.024109745
1	0xbdc2d9b2	-0.09514178
2	0x3cd8ec5d	0.026479894
3	0xbdc78312	-0.097417966
4	0xbe2ba44b	-0.16761892
5	0x3dc2bd8f	0.09508812
6	0x3d75b0d4	0.05998309
7	0x3ca0eff1	0.019645663
8	0x3df3f5b0	0.119120955
9	0xbd855b9f	-0.06511616
10	0x3cebe098	0.028793618
11	0x3db226d3	0.086988114
12	0x3d6718a1	0.056419972
13	0xbdb75d2f	-0.0895332
14	0xbd1eae3a	-0.038740374
15	0xbdcf056c	-0.10108456
16	0x3cbf3136	0.023338895
17	0xbd28bb70	-0.04119438
18	0x3d6a83d4	0.057254627
19	0xbd14d3e6	-0.036334895
20	0x3cd3f550	0.02587381
21	0x3d027f37	0.031859603
22	0x3e08e0cb	0.13367002
23	0xbd899087	-0.067170195
24	0xbdc3d1de	-0.09561513
25	0x3d5c1294	0.053728655
26	0xbd37ed3e	-0.044903986
27	0xbda1c3ce	-0.07898675
28	0x3d9dce4e	0.07705365
29	0x3d848ee7	0.06472569
30	0xbdf0c778	-0.11756796
31	0x3dbaba1c	0.09117529
32	0xbda4b6d6	-0.08042686
33	0xbdd92c89	-0.106041975
34	0xbd3a6355	-0.045504887
35	0xbd9e1d30	-0.07720411
36	0xba6bdb15	-0.00089971843
37	0x3d2e93f1	0.042621557
38	0xbc8eb707	-0.017421259
39	0x3d9a1a69	0.075245686
40	0xbc34c168	-0.01103244
41	0xbd1986d4	-0.037482098
42	0xbd0b0725	-0.03394236
43	0xbded9e90	-0.11602509
44	0xbc85b4e9	-0.016321616
45	0xbc95a926	-0.018269133
46	0xbe19186f	-0.14950727
47	0xbe10cce2	-0.14140657
48	0x3dae92db	0.08524104
49	0xbda6ac50	-0.08138335
50	0x3dc35f14	0.09539619
51	0x3dba7c5b	0.0910575
52	0xbdf373f7	-0.11887353
53	0xbdb0ed18	-0.08638972
54	0xbe29669d	-0.1654305
55	0xbc951dcf	-0.01820269
56	0xbde88509	-0.113534994
57	0xbd9ec51e	-0.07752441
58	0x3d7ead0a	0.06217674
59	0x3c1b682e	0.009485288
60	0xbdff6ede	-0.12472318
61	0xbe21de49	-0.15807451
62	0x3cd3ed98	0.02587013
63	0x3d20defa	0.039275147
64	0xbc0a4cbd	-0.008441147
65	0x3db54f68	0.08853036
66	0x3d8ccf68	0.06875497
67	0x3babb6b8	0.0052402876
68	0x3dbe57f8	0.092941225
69	0x3d52a700	0.051428795
70	0xbe1f5083	-0.15558057
71	0x3d04c79b	0.03241692
72	0xbe2296e9	-0.1587788
73	0xbd672488	-0.056431323
74	0x3d8aca43	0.067768596
75	0xbd7d17ec	-0.06179039
76	0xbe49a4e1	-0.19691803
77	0xbdacbace	-0.08434068
78	0xbd335b9e	-0.043788545
79	0x3da01368	0.078162014
80	0xbd95d1db	-0.073154174
81	0xbd7e48fe	-0.06208133
82	0xbd94f7f1	-0.072738536
83	0x3d96fd70	0.07372558
84	0xbbcf2094	-0.0063210223
85	0x3ce0b514	0.027430095
86	0xbdf2a41d	-0.118477084
87	0xbdd6a7f3	-0.104812525
88	0xbe24a402	-0.16078189
89	0xbe32889f	-0.1743493
90	0xbe3e2042	-0.18566993
91	0xbddbb0ad	-0.107270576
92	0xbdde972b	-0.10868677
93	0x3d0a05da	0.033696987
94	0xbd529167	-0.051408198
95	0x3dc97911	0.09837545
96	0x3d4bb545	0.04973342
97	0x3dcf50ff	0.10122871
98	0x3df126bd	0.11774967
99	0x3d2fa58c	0.042882487
100	0x3dbd2ea5	0.09237412
101	0xbdf33735	-0.11875764
102	0xbdba481e	-0.090957865
103	0x3c847391	0.016168388
104	0xbe00a969	-0.12564625
105	0x3dbf2e8c	0.0933505
106	0xbd079275	-0.033098657
107	0x3e048c06	0.1294404
108	0xbdba20d8	-0.09088296
109	0xbe070a1a	-0.13187447
110	0x3dd67f04	0.10473445
111	0xbe17bd14	-0.14818221
112	0x3cb9daa2	0.02268726
113	0x3d8d2345	0.06891493
114	0x3d9ac842	0.075577274
115	0xbd025d7c	-0.031827435
116	0xbdae8e5f	-0.08523249
117	0x3d815adb	0.063161574
118	0x3db67621	0.0890925
119	0xbbd583c0	-0.00651595
120	0xbcce3393	-0.025171077
121	0x3ccaef16	0.024772208
122	0x3c2efcad	0.01068036
123	0xbe1b251f	-0.1515088
124	0xbd3aa477	-0.045567002
125	0xbc70025b	-0.014648999
126	0xbda07306	-0.07834439
127	0xbcd30f3e	-0.025764104
128	0xbd965887	-0.07341104
129	0xbda1e438	-0.079048574
130	0x3d93ba3c	0.07213256
131	0x3b97e57a	0.00463551
132	0x3db0ce18	0.08633059
133	0xbe609f59	-0.21935786
134	0x3da46c86	0.08028512
135	0xbd8019c7	-0.06254917
136	0xbda2a4d4	-0.07941595
137	0x3c8a96db	0.016917637
138	0xbda0ea8a	-0.07857235
139	0xbacef1e4	-0.0015788642
140	0x3d9ba5a7	0.07599955
141	0xbe224a9b	-0.15848772
142	0xbdaa659b	-0.08320161
143	0x3d3e659a	0.046483614
144	0xbc9dd0aa	-0.019264538
145	0x3b232b94	0.00248978
146	0xbe8429d6	-0.25813168
147	0x3d463dea	0.04839889
148	0x3b889414	0.004168043
149	0x3e06c8d6	0.1316255
150	0xbd868882	-0.065690055
151	0xbd9efd87	-0.077632
152	0x3dc85bec	0.09783158
153	0xbe453386	-0.19257936
154	0x3e12a74d	0.14321633
155	0xbd5c4ef0	-0.05378622
156	0x3e0d4cb0	0.13798785
157	0x3c4c252a	0.0124600325
158	0xbdf378eb	-0.11888298
159	0xbe74b28b	-0.23896234
160	0xbd8a06df	-0.06739592
161	0xbd921c1e	-0.07134269
162	0x3d869bdd	0.06572697
163	0x3db257a7	0.087081246
164	0x3cb275df	0.021784721
165	0xbe811f8d	-0.25219384
166	0xbd77380e	-0.060356192
167	0xbdc36085	-0.09539894
168	0xbcb132c4	-0.021630652
169	0xbcdedbb2	-0.027204368
170	0x3d11d7a5	0.035606045
171	0xbdd5fb1e	-0.104482874
172	0xbdc30f8b	-0.09524449
173	0xbd84f712	-0.064924374
174	0x3ce43d8f	0.027861385
175	0x3dece91d	0.115679
176	0xbe2ccd7c	-0.16875261
177	0x3c8aa25b	0.01692312
178	0x3dc66d41	0.09688807
179	0xba041b37	-0.0005039456
180	0xbe63c1b8	-0.22241867
181	0xbb0891a1	-0.0020838755
182	0xbe1d402a	-0.15356508
183	0xbd87e2ad	-0.06635032
184	0xbe0e6e67	-0.13909303
185	0x3d59e106	0.053193115
186	0xbb81d4b6	-0.0039621247
187	0xbe7036c6	-0.23458394
188	0xbe3ac0b2	-0.1823757
189	0x3d4d33ff	0.050098415
190	0xbe4d19f4	-0.20029432
191	0xbde07521	-0.109598406
192	0x3d1fcdfa	0.039014794
193	0x3c03b4e3	0.008038732
194	0x3d7cb436	0.0616953
195	0x3b0e1544	0.0021680156
196	0xbe34dea3	-0.17663054
197	0xbc206b47	-0.009791202
198	0x3da5fec6	0.08105235
199	0x3d11ac6f	0.035564836
200	0x3ddc686a	0.10762103
201	0x3db64f3f	0.08901834
202	0xbd0b9b49	-0.03408364
203	0x3e02af64	0.12762219
204	0xbdfc055a	-0.12305708
205	0xbd44c4b2	-0.048039146
206	0x3e1bfb3b	0.15232556
207	0xbe3d17d8	-0.18466127
208	0xbdae465c	-0.08509514
209	0x3d94f120	0.072725534
210	0x3e03ba3e	0.12864015
211	0xbe044e94	-0.129206
212	0x3d813838	0.06309551
213	0xbd14914a	-0.03627137
214	0xbc85ea9b	-0.01634722
215	0x3c52a3be	0.012856422
216	0x3d9484d1	0.07251895
217	0xbcb6f907	-0.022335542
218	0xbd92c32d	-0.07166133
219	0x3daa1716	0.083051845
220	0xbdab164b	-0.083538614
221	0xbdb586fe	-0.08863638
222	0xbc3ade16	-0.0114054885
223	0xbe3f2111	-0.18664958
224	0xbd7aabf6	-0.06119915
225	0x3dad903d	0.08474777
226	0x3d9e1b00	0.077199936
227	0xbcae17ae	-0.021251526
228	0x3d66a364	0.056308165
229	0x3dace530	0.084421515
230	0xbd052921	-0.032509927
231	0x3b423223	0.0029631935
232	0x3dac0ac3	0.0840049
233	0xbdf72d84	-0.12069228
234	0x3cc862cb	0.02446117
235	0xbca34bb2	-0.019933555
236	0xbd5c0d73	-0.053723764
237	0x3dcf6073	0.10125818
238	0xbe1b5cbc	-0.15172094
239	0x3d825f93	0.063658856
240	0xbdc2bc9c	-0.09508631
241	0xbc3fe591	-0.011712448
242	0x3e00d66f	0.125818
243	0x3d8afda2	0.06786658
244	0xbd20ce86	-0.039259456
245	0xbe1981a7	-0.14990865
246	0xbe5f2b85	-0.21793945
247	0x3d5839a3	0.05278934
248	0x3c65cf04	0.014026407
249	0x3d5d0d23	0.053967606
250	0x3dce86b5	0.10084287
251	0x3d32bdaa	0.04363791
252	0xbe2478aa	-0.16061655
253	0xbe18ea7b	-0.14933197
254	0xbc4407b4	-0.011964727
255	0x3dc0d977	0.09416478

fc1.bias f4 [10]
0	0x3c1c2496	0.009530207
1	0xbdcce757	-0.10005062
2	0x3d070ecb	0.032973092
3	0x3a4d3442	0.00078279164
4	0x3d68e956	0.05686315
5	0x3cec450e	0.028841522
6	0xbc06dcb6	-0.0082313325
7	0x3d905772	0.07047929
8	0xbcd38a08	-0.025822654
9	0x3d66582d	0.056236435
